Week 7/model_best.pt (torch, 496230 bytes, 5 tensors)

weight f4 [10, 12288]
000000 63 2a db bb 4c 9b 86 bb 37 a5 38 bc 2c 28 0a bc
       -0.0066884025 -0.0041078683 -0.011269859 -0.008432429
000010 6d 9b 5e bc b0 43 64 bb 55 90 d4 bb 64 96 60 bc
       -0.013586861 -0.0034830384 -0.0064869323 -0.013707731
000020 5f 23 87 bb c3 de 87 3a cb 0b 8d bc 5d f7 60 bc
       -0.0041240896 0.0010366071 -0.017217537 -0.013730851
000030 ee f0 ea 3a 29 fc 11 bc 30 20 78 bc 13 db 29 bc
       0.0017924586 -0.008910217 -0.015144393 -0.010367173
000040 b8 f8 2a bc f4 db be bb 9e f3 f4 ba 91 d7 84 bc
       -0.010435276 -0.0058245603 -0.0018688326 -0.016216071
000050 a4 25 97 bc 86 96 ed bb 33 dd 6a bc 07 aa 56 bc
       -0.018450566 -0.00725061 -0.014334965 -0.013102061
000060 f9 f8 30 bc 4f a3 32 bc 41 4e 47 ba 05 d7 e4 bb
       -0.010801547 -0.010903194 -0.00076029083 -0.00698364
000070 97 66 48 bc 28 95 45 39 e8 fb 02 bc 86 72 7d bc
       -0.012231491 0.00018842949 -0.007994629 -0.015469199
000080 68 cd 23 bc aa 52 05 bc 0b 95 3f 39 52 92 01 bc
       -0.009997703 -0.008137384 0.00018270702 -0.007908421
000090 9b 2a 04 3c 84 9b 1a bc 3d 2b 2e bc aa 34 0b bb
       0.008066799 -0.009436492 -0.010630426 -0.0021241107
0000a0 eb 82 2d bb 08 f4 2e bc 7c 91 be bb c8 f2 33 bb
       -0.0026475738 -0.010678299 -0.005815683 -0.0027457941
0000b0 6a 56 82 bb 74 02 a7 ba 51 95 80 3b a9 ed 3d bc
       -0.0039775865 -0.001274182 0.00392405 -0.011592307
0000c0 7a 4b 4b bb b3 ff ba b9 3d 54 31 39 3f f1 89 bb
       -0.003102033 -0.00035667195 0.00016911417 -0.004209667
0000d0 ce 8a d9 bb 21 0c a6 ba 56 2d d8 3b 67 83 fe 3a
       -0.0066388613 -0.001266841 0.0065972013 0.0019417823
0000e0 27 be 5e bb be 53 df 3b 8c a9 5b bc dd 6e 31 bc
       -0.0033987851 0.006815403 -0.013407122 -0.0108296545
0000f0 d6 b6 50 3b 7e c1 5a bc 71 93 09 3b a8 32 eb 3b
       0.003184726 -0.013351796 0.0020992423 0.0071776696
000100 de 10 5c bc c1 37 32 bc 3b b0 03 bb 3b 74 b6 bb
       -0.013431756 -0.010877551 -0.0020094055 -0.005568055
000110 6c db 69 bc a0 6d 39 3b 74 9a 11 bc 56 fb 1b bb
       -0.014273506 0.0028294101 -0.008886922 -0.002380093
000120 b3 d2 9b bb 3e 9b 9a bb 35 4c 05 bc 74 c1 03 b7
       -0.004755342 -0.0047182133 -0.008135845 -7.85325e-06
000130 ad d4 23 bc 42 4a 2c bc de 75 0e 3b 9c 11 b5 3b
       -0.009999436 -0.010515751 0.0021737735 0.005525781
000140 64 38 22 bc 93 af a5 3b e2 83 44 3a d1 83 09 ba
       -0.00990114 0.0050563305 0.0007496459 -0.00052457774
000150 c1 0f 33 3c a8 c5 b4 bb 4d d2 1f 3b 38 bc df 3b
       0.010929049 -0.0055167265 0.0024386824 0.0068278573
000160 47 d2 b0 bb cc e8 33 bc 02 8f b2 bb ab 4f a7 39
       -0.0053961608 -0.010980796 -0.0054491768 0.0003191208
000170 d4 13 36 bc 4e db 19 bb ba da 20 3b 3a 84 8b bb
       -0.011113126 -0.0023476663 0.0024544434 -0.004257706
000180 6e 2f 78 3b 76 1c 05 bc cb 67 40 ba 8f ee 1c 3c
       0.0037870067 -0.008124461 -0.0007339685 0.009578361
000190 37 37 05 3b 42 5b da bb 26 b7 cb 3b d0 f1 8d bb
       0.00203271 -0.006663711 0.0062169014 -0.004331805
0001a0 a8 58 29 bc 3d 75 90 ba 39 d9 e6 bb 4b ea 6b 3b
       -0.010336079 -0.0011021268 -0.007044938 0.0035997804
0001b0 21 e3 c5 3b b2 2a a5 bb 90 48 c3 bb 93 aa e4 ba
       0.0060390388 -0.00504049 -0.005959578 -0.0017445855
0001c0 fd 97 91 b9 50 8a 2b bb f7 33 a8 ba 35 ad 07 bc
       -0.00027769795 -0.002617497 -0.001283287 -0.008281042
0001d0 89 78 b4 3a 87 4c 25 bb da b0 39 bc 4a 97 63 3b
       0.0013768832 -0.0025222616 -0.011333669 0.0034727626
0001e0 db 58 10 3c f7 59 e9 bb 4b c1 ab bb da 8f af 3b
       0.008810247 -0.0071213203 -0.005241548 0.0053577246
0001f0 a4 50 26 3b 5e 08 3b 3b 89 e2 af 3b 2d 5b 88 3b
       0.0025377655 0.0028538923 0.0053675813 0.0041612596
000200 c8 8b 05 bc d4 43 dd ba 8b 79 45 bc e7 2b 1b 3b
       -0.008151002 -0.0016881176 -0.012052904 0.002367729
000210 fe 57 f1 bb 55 73 ec bb 6b 7f 0d bc 9a 0c a8 3b
       -0.007365226 -0.007215897 -0.008636336 0.0051284553
000220 f7 25 38 bb cb e9 6d bc 59 e4 1c 3c ff 17 0e bb
       -0.00280988 -0.014521073 0.009575927 -0.0021681783
000230 89 16 38 bc fd 74 09 3b 05 4b c1 bb 4a f2 b8 ba
       -0.011235842 0.0020974271 -0.0058988356 -0.0014110294
000240 1f 2b 8e bb 0b 15 f7 3a b0 6f 2d bc 8d 92 ab 3b
       -0.0043386365 0.0018850876 -0.01058571 0.005235976
000250 3a e2 37 bb bf f9 a6 bb e6 37 98 bb b3 38 2f 3a
       -0.0028058426 -0.00509569 -0.0046453355 0.0006684169
000260 39 be 38 bc 3b d9 95 3b 39 52 ac bb cf 6e 76 bc
       -0.011275821 0.004573015 -0.005258825 -0.015041067
000270 4e 4a fb ba 5d bd 05 3b ad 6f 2d bc 1a 72 86 3b
       -0.0019171925 0.0020407059 -0.010585708 0.0041029574
000280 31 df 2b bc cc c7 45 bc a3 f7 92 bb 3f d6 ce bb
       -0.010490225 -0.012071561 -0.004485087 -0.006312161
000290 2e 15 e6 bb 12 8b cb bb 05 23 36 bc 07 35 4d ba
       -0.007021568 -0.006211647 -0.011116748 -0.0007828031
0002a0 48 36 8b 3a 8c ff 00 3b f8 18 88 3b 88 cd 4c bb
       0.0010621035 0.0019683568 0.004153367 -0.0031250436
0002b0 d9 b4 19 bc f2 18 a0 bb b1 54 1c bc ee 5c 09 bb
       -0.009381496 -0.004885786 -0.009541676 -0.0020959931
0002c0 c5 23 80 bb 0e 4f 22 bc 87 8a b0 bb 4e 45 a5 39
       -0.003910514 -0.009906543 -0.0053876075 0.00031522888
0002d0 23 a1 a4 3b e6 3d b9 bb 88 b0 0e bb 12 e4 91 3b
       0.005024092 -0.005653131 -0.0021772701 0.004452237
0002e0 23 55 f6 bb 6c 6c fa 3a ec a8 fb ba 46 99 41 bc
       -0.0075174733 0.0019105799 -0.0019200123 -0.011816328
0002f0 03 ab 13 bb eb 20 49 bc 5d 19 c7 bb 54 92 b6 bb
       -0.002253235 -0.012275915 -0.0060760216 -0.005571643
000300 7c c2 49 bc e8 c5 73 bc 96 82 22 bc 84 9d 79 3a
       -0.012314435 -0.0148787275 -0.009918829 0.0009522068
000310 04 d5 8f bc 29 3c 80 bc b0 15 46 bc d9 f4 06 bb
       -0.017557628 -0.015653687 -0.012090132 -0.0020592718
000320 3c d4 45 bb 85 2e e7 bb 48 7e 8d bc b4 a3 65 bc
       -0.0030186316 -0.007055106 -0.01727213 -0.014016081
000330 fa 37 1e bc 54 5c 3e bc 61 1b 9a bc f5 c3 98 bb
       -0.009656901 -0.011618692 -0.018811883 -0.004662032
000340 0c 7d 8f bc 23 c2 bc bb 64 9e 4a bc 14 95 04 bb
       -0.017515682 -0.0057604476 -0.012366865 -0.002023046
000350 30 f1 cd bb d5 1f 1b bc 9a 97 b7 bb 73 5d ac bb
       -0.0062848553 -0.009468039 -0.005602789 -0.0052601635
000360 81 42 a4 ba ff a3 f9 bb 81 da 69 bc a3 1b e5 3a
       -0.0012532027 -0.007618427 -0.014273287 0.001747955
000370 40 9f fd bb 13 db c1 bb 03 b9 e9 3a 8e 1c 82 bc
       -0.0077399313 -0.0059160083 0.0017831627 -0.015882757
000380 28 91 40 bc c7 90 a0 bb 52 33 2f 3b 01 65 44 bb
       -0.011753358 -0.0049000713 0.002673347 -0.002996743
000390 38 78 27 3c 68 18 2f 3a bc 36 3d bc f8 e7 33 bb
       0.0102215335 0.0006679357 -0.011548694 -0.0027451497
0003a0 39 5a 5f bc 7c d9 db bb 1c fa 1b 3c b5 bc 1d 3b
       -0.013632351 -0.006709276 0.00952008 0.0024068777
0003b0 3c 50 93 ba 40 2c fd 3b 60 5f 92 39 09 f6 8c 39
       -0.0011239122 0.0077262223 0.0002791835 0.0002688619
0003c0 ff d9 15 3c 3d 8d 63 ba 17 16 6b b9 87 eb 37 3c
       0.009146213 -0.0008680409 -0.00022419576 0.011225588
0003d0 35 d9 fc bb e5 b3 79 3a 89 0a 85 bb 74 df 1d bc
       -0.007716323 0.00095254026 -0.004060094 -0.009635795
0003e0 21 6f 7f 3b 99 fb 96 3b 3c ba b2 3b fa 11 36 3b
       0.003897615 0.0046076295 0.00545433 0.002778171
0003f0 bb 1d 01 bb c9 8a b1 3b b1 d6 46 bc 93 31 14 bb
       -0.0019701559 0.005418156 -0.012136147 -0.0022612556

bias f4 [10]
000000 b7 d2 9d 3d 58 65 c6 3d 11 35 ce 3d 4c b5 1a 3b
       0.07706206 0.096872985 0.10068715 0.0023606597
000010 72 56 b4 3d 24 ec b4 bb df 99 3b 3e 17 db 71 3d
       0.08805551 -0.005521314 0.18320416 0.05904683
000020 db 64 27 3e b4 b2 84 3d
       0.16347067 0.064793974

weight f4 [12, 10]
000000 98 3b 1b bd 12 37 19 3e 4c eb 84 3d c3 d3 85 be
       -0.03789863 0.14962414 0.06490192 -0.26138124
000010 a0 41 81 be 94 ee c3 3d 4c 6f 1b be f0 af 2f bd
       -0.2524538 0.095669895 -0.15179175 -0.042892396
000020 14 af 94 3d ba c4 69 3e 7d 6d 8c 3e d7 a7 a4 bb
       0.07259956 0.22828951 0.27427283 -0.005024891
000030 45 f0 fd 3c fc 3a 50 3e 24 25 09 3f 50 d0 ca bc
       0.030998359 0.20335001 0.535723 -0.024757534
000040 e8 54 ba be 92 dc bf 3e 9c 91 dc be c4 18 6f 3e
       -0.36392903 0.3747297 -0.4307984 0.23349291
000050 3e a2 f5 3e e5 f4 f5 bd 86 d8 09 be f6 f5 3b be
       0.47975343 -0.120096005 -0.13461503 -0.18355545
000060 17 90 df 3e 5a a8 c1 bd cf e1 fb be 09 37 bd 3e
       0.4366462 -0.09455939 -0.49195716 0.3695605
000070 a3 37 b3 be 8c 7f 54 bd 5b 0d 06 be e1 a6 53 3e
       -0.35003385 -0.05187945 -0.13091032 0.20669128
000080 be ee 7e 3d 59 5b 07 be 8b 57 a0 3d 54 fa 5c be
       0.0622394 -0.1321844 0.078291975 -0.21579868
000090 82 c7 2e bc 10 6f 45 3c 14 56 85 3e b1 7a f3 bd
       -0.010667684 0.012050405 0.26042235 -0.11888636
0000a0 8f 7d ff 3e b8 2b 8f be ad 6b 92 be 02 89 95 bd
       0.4990048 -0.27963042 -0.28597775 -0.07301523
0000b0 8b 2c ed 3e 43 0d 8b 3e 20 4a db 3d a1 bc 5e 3c
       0.46323046 0.27158555 0.107074976 0.013594777
0000c0 d4 1f 25 3e 10 77 92 be 10 d7 1b be 71 d9 02 3d
       0.16125423 -0.28606462 -0.15218759 0.03194565
0000d0 ec 3f da 3d 6d 8d bc 3c 35 f2 72 be 4e fc 0b be
       0.106567234 0.023016656 -0.23725207 -0.13670465
0000e0 67 0d 2f 3e 19 04 6a be 45 9f cd 3e 8a 2f 2f be
       0.17094956 -0.22853126 0.40160576 -0.17107978
0000f0 d0 24 4d bd 36 fb 40 3e 20 dd 6f be ba 35 5d 3e
       -0.050083935 0.1884583 -0.23424196 0.21602526
000100 40 6e da 3b fd 90 83 3e 4e 87 7d 3e 00 2f e8 bd
       0.006665975 0.25696555 0.24758646 -0.113370895
000110 30 29 54 be da c2 45 3e 5d e1 69 3e d5 0b 2c bd
       -0.20718837 0.19312611 0.22839876 -0.04200347
000120 21 fe 4e 3e 2d c5 1c be 4d f8 9f be 5c cb 98 3d
       0.2021413 -0.15309592 -0.31244126 0.07460663
000130 5d 40 b7 3e 78 15 6d 3e 4e 01 b3 3e e1 dc 3a 3e
       0.35791293 0.23152721 0.34961933 0.18248321
000140 84 72 a5 3e b7 10 87 be ea df 45 bd 58 40 3e be
       0.3231393 -0.2637994 -0.048309244 -0.18579233
000150 d8 23 a9 3e 78 24 91 be ab 6b 84 be ea 66 89 bc
       0.3303516 -0.28348136 -0.25863394 -0.016772706
000160 c0 c3 bd be 4d 31 59 be e0 00 dd bc cb 17 99 3e
       -0.37063408 -0.21210213 -0.026977956 0.29900965
000170 7e 0b 70 3e c0 f9 79 bc 8e a1 2e 3e 6a 2a 52 3e
       0.23441884 -0.015257299 0.17053816 0.20523992
000180 3e 89 ab bd 36 21 49 be d1 dc 5b be 95 cd 88 3e
       -0.08375786 -0.19641575 -0.21470954 0.26719347
000190 d1 c2 97 3e 0b 65 eb bd 11 f6 4f 3d a3 61 53 be
       0.2964082 -0.11493882 0.050771777 -0.20642714
0001a0 1d 47 33 3e 70 b3 86 3c 39 ff 41 3e 62 2b 3b be
       0.17507596 0.016442984 0.18945016 -0.18278268
0001b0 5e c7 65 3e 98 0f 92 3e 43 f4 1d bf 49 f0 c4 3e
       0.22439334 0.28527522 -0.6170084 0.38464573
0001c0 21 f3 a8 3e 56 eb f8 bd 02 a5 0f bf c9 cd 83 be
       0.32997993 -0.12154262 -0.56111157 -0.2574294
0001d0 f0 94 2b 3f ed e9 d2 bd 35 c2 f2 3e f4 20 a8 3e
       0.67024136 -0.10298524 0.47413793 0.3283764

bias f4 [12]
000000 f7 16 73 be bc d2 54 3e a3 6d 9c 3e ea 5e 3d bb
       -0.23739229 0.20783514 0.30552396 -0.0028895685
000010 97 b8 2a 3d ce 7f 1e 3e 8b e8 91 be b3 b6 2d bd
       0.041679945 0.15478441 -0.2849773 -0.042410564
000020 3f 82 91 3e 9c 02 d4 bd 80 16 33 be 86 34 b9 3e
       0.28419682 -0.1035206 -0.17489052 0.36172885

weight f4 [1, 12]
000000 8c 94 55 bd c5 0e 4f 3f 5d e4 6e 3f 12 f2 a7 be
       -0.05214362 0.8088191 0.93317205 -0.32801872
000010 99 cc 0b 3f 4b f8 e8 be c6 28 4a 3e 25 d3 7b be
       0.54609066 -0.45501933 0.19742116 -0.24592264
000020 a0 65 2e 3f 9a a8 43 be 01 4d 43 3e 44 1a a1 bf
       0.6812382 -0.19107285 0.19072343 -1.2586141
